…
 the bound.\nвҲҺ\n-G\nPolicy Parametrization\nShortcut Model.\nTraining uses the AdamW optimizer with a learning rate of\n3\nГ—\n10\nвҲ’\n4\n3\\text{\\times}{10}^{-4}\n, and we clip the gradient norm at\n5.0\n5.0\n. The replay buffer has a maximum capacity of\n1\nГ—\n10\n6\n1\\text{\\times}{10}^{6}\ntransitions and a batch size of\n1024\n1024\n. The detailed architecture is shown below, where\nSTATE\n,\nACTION\n, and\nPARAMETER\ndenote the dimensions of the state, action, and physical coefficients.\nShortcut Model: ShortcutModel(\n(flow): DiffusionTransformer(\n(state_encoder): Sequential(\n(0): Linear(in_features=STATE, out_features=512)\n(1): Mish()\n(2): Linear(in_features=512, out_features=128)\n)\n(state_decoder): Sequential(\n(0): Linear(in_features=128, out_features=512)\n(1): Mish()\n(2): Linear(in_features=512, out_features=STATE)\n)\n(action_encoder): Sequential(\n(0): Linear(in_features=ACTION, out_features=512)\n(1): Mish()\n(2): Linear(in_features=512, out_features=128)\n)\n(privilege_encoder): Sequential(\n(0): Linear(in_features=PARAMETER, out_features=512)\n(1): Mish()\n(2): Linear(in_features=512, out_features=128)\n)\n(timestep_embedding): DualTimestepEncoder(\n(sinusoidal_pos_emb): SinusoidalPosEmb()\n(proj): Sequential(\n(0): Linear(in_features=128, out_features=256)\n(1): Mish()\n(2): Linear(in_features=256, out_features=64)\n)\n)\n(d_timestep_embedding): DualTimestepEncoder(\n(sinusoidal_pos_emb): SinusoidalPosEmb()\n(proj): Sequential(\n(0): Linear(in_features=128, out_features=256)\n(1): Mish()\n(2): Linear(in_features=256, out_features=64)\n)\n)\n(transformer): ModuleList(\n(0-5): 6 x AdaLNAttentionBlock(\n(norm1): LayerNorm((128,), eps=1e-06)\n(attn): Attention(\n(qkv): Linear(in_features=128, out_features=384)\n(attn_drop): Dropout(p=0.0, inplace=False)\n(proj): Linear(in_features=128, out_features=128)\n(proj_drop): Dropout(p=0.0, inplace=False)\n)\n(norm2): LayerNorm((128,), eps=1e-06)\n(mlp): MLP(\n(fc1): Linear(in_features=128, out_features=512)\n(act): GELU(approximate=none)\n(fc2): Linear(in_features=512, out_features=128)\n(drop): Dropout(p=0.0, inplace=False)\n)\n(adaLN_modulation): Sequential(\n(0): SiLU()\n(1): Linear(in_features=512, out_features=768)\n)\n)\n(6): AdaLNFinalLayer(\n(norm): LayerNorm((128,), eps=1e-06)\n(linear): Linear(in_features=128, out_features=128)\n(adaLN_modulation): Sequential(\n(0): SiLU()\n(1): Linear(in_features=512, out_features=256)\n)\n)\n)\n)\n)\nTABLE II:\nDomain Randomization Parameters across all platforms. Ranges denote the Uniform distribution\nрқ’°\nвҖӢ\n(\nm\nвҖӢ\ni\nвҖӢ\nn\n,\nm\nвҖӢ\na\nвҖӢ\nx\n)\n\\mathcal{U}(min,max)\n. Operations indicate whether the noise replaces (\n=\n=\n), scales (\nГ—\n\\times\n), or is added to (\n+\n+\n) the nominal values. вҖңObjвҖқ refers to the manipu
…
